rob501_fall_2019_project_05/best_model_20.pth (torch_old, 67281 bytes, 14 tensors)

conv1.weight f4 [16, 3, 9, 9]
000000 dc d7 41 3d bd eb 25 3d ab 57 ea bc e7 12 48 3d
       0.047325 0.04050802 -0.028606256 0.04884615
000010 bc 2d 11 bd 20 2f e1 bb 9a 15 dc bc c9 eb 29 3d
       -0.035444006 -0.006872073 -0.02686577 0.041484628
000020 45 34 a0 3d ff be 5d bd 0b 41 6c 3d 20 15 9f 3b
       0.078224696 -0.054137226 0.057679217 0.004854813
000030 bd 9c 44 3d 2a d4 23 3c 0c c3 3a 3d 38 25 33 3c
       0.04800104 0.009999314 0.045596167 0.010934167
000040 5e b9 3e 3d cc b7 c2 3c e0 30 a5 bc bb d4 93 3c
       0.0465635 0.023769282 -0.020164907 0.018045774
000050 bf 96 34 bd ec 3a 44 3c 0b 43 a6 bc 31 91 79 3d
       -0.044089075 0.011976939 -0.02029564 0.06092948
000060 b9 2c 9a bc c3 b4 be bc 41 b8 f8 3b c4 90 89 bd
       -0.018820154 -0.023279553 0.007590324 -0.06717065
000070 9f 11 27 bc 89 70 96 bd c0 77 7d 3d 16 5b 7e bd
       -0.010197072 -0.07345683 0.06188178 -0.062098585
000080 de 79 1d 3d 4a 8d a1 3c 3a fe b1 bc 26 97 35 3d
       0.0384463 0.019720692 -0.02172767 0.0443336
000090 d5 2b c7 3a 29 bf 37 3d 2a 5c c3 3c f5 fa d7 3b
       0.0015195558 0.04486004 0.023847658 0.0065911957
0000a0 0a af b9 3c 2a 7d e0 b9 f8 cb 20 3d 36 49 84 3d
       0.022666473 -0.00042817864 0.03925702 0.064592764
0000b0 a6 37 52 3d 1d 27 06 bd 1a 2e 19 3d 88 a3 9f 3c
       0.0513226 -0.032752145 0.03739748 0.019487157
0000c0 f1 83 51 3d 96 64 07 bd 37 cc 56 bd 77 c6 2b bb
       0.05115122 -0.03305491 -0.05244085 -0.0026210824
0000d0 20 dc 69 bd e7 c4 67 3d 84 7c b4 3c 2e 63 f2 3c
       -0.057094693 0.056584265 0.02203203 0.029588308
0000e0 a4 2f dd 3c 82 3a a4 3c d3 8e 89 3d bc fb 59 bd
       0.027000256 0.02004743 0.06716695 -0.05321859
0000f0 a6 fd c0 3c c1 45 41 bd df bd 03 3d 60 a7 98 bc
       0.023558449 -0.047185663 0.032163497 -0.018634498
000100 67 c8 0e 3c 3e 13 e2 bb 28 5a 4d 3d 51 a8 41 bd
       0.008714772 -0.0068992665 0.050134808 -0.04727966
000110 56 99 ab bc 36 da 24 bc b6 eb 83 3d e4 56 e3 3c
       -0.02094714 -0.010061791 0.06441443 0.027751394
000120 1a 87 84 3d a3 cc 11 bd a6 ab 38 bd 5a db 35 bd
       0.06471081 -0.035595547 -0.04508557 -0.044398643
000130 1f f8 26 bd 64 1c bc 3c 64 8a cf 3c 44 4d 8e 3d
       -0.04076397 0.022962756 0.025334544 0.06948331
000140 b6 55 8a bc a1 23 4e bd 7a 74 31 3c dd 49 34 bd
       -0.016886573 -0.050326947 0.010830993 -0.044015754
000150 ac 25 b3 3c bc 9f 3c bd 9c 3c 6b 3c dc a7 4c bd
       0.02186855 -0.046050772 0.014357712 -0.04996477
000160 4c ab ed bc e7 2d 29 3d d8 d9 c6 ba 46 62 d5 bc
       -0.029012345 0.04130354 -0.0015171124 -0.026047837
000170 15 f8 a9 3c e2 39 1d 3d 0b e6 5a bd 42 fc 13 bd
       0.020748178 0.03838528 -0.053442042 -0.036129244
000180 97 17 99 3d 7a 24 e2 bc 5f 6d 98 bc f8 35 60 bd
       0.074752025 -0.027605284 -0.01860684 -0.05473897
000190 d6 2e 3a bd 37 01 94 bb ab 7a ce bb c1 d8 33 bd
       -0.045454822 -0.0045167464 -0.0063012443 -0.043907885
0001a0 ce 80 c7 3b 89 e7 cb bc 4f 84 7f bd ec 1e d9 bc
       0.0060883528 -0.024890678 -0.06238204 -0.026504003
0001b0 7a dc b9 bd 10 3e 90 bd 3b f5 56 3d 0d cd 17 3c
       -0.09075256 -0.070430875 0.052479964 0.0092651965
0001c0 ad ba 90 3b 1e c9 90 bd cb 97 c7 bc 06 d4 ea bc
       0.0044167847 -0.0706961 -0.024364373 -0.028665554
0001d0 47 3e 81 3c 36 de 90 bd e3 f5 29 bd 6b 02 fb bc
       0.015776766 -0.070736334 -0.04149426 -0.030640801
0001e0 37 f4 60 3c 2b 1e c8 bc e4 b4 50 3c fa 4a 07 bd
       0.0137301 -0.024428448 0.01273844 -0.033030488
0001f0 fc 56 3e bd 61 9d 04 bd 9a e6 01 bd af 0c 83 bd
       -0.046469674 -0.03237665 -0.03171406 -0.063989036
000200 2a bb 5c 3d 56 52 20 bb ec f8 53 3d ed bf e2 3c
       0.05388943 -0.0024463139 0.051751062 0.027679408
000210 d5 bf 48 bd e6 8e d8 3c ab 38 d3 bc 42 73 14 bd
       -0.04901107 0.026435327 -0.025783857 -0.03624273
000220 ad 01 86 bd 7e fe 7e bd 52 39 ce 3c 23 dd ab bc
       -0.065432884 -0.06225442 0.025173817 -0.02097947
000230 12 0d 28 3c b1 2d 69 bd fe 0e ea 3c 76 6d 48 bd
       0.010257022 -0.05692834 0.028571602 -0.048932515
000240 a2 64 87 bc 5d 5e c1 bb 18 57 0a 3d 8e 2c 4c 3d
       -0.016527478 -0.0059011416 0.033774465 0.04984718
000250 9b 98 32 3d e7 f8 58 bd 8b 33 0e 3d dc c2 08 bd
       0.043602567 -0.052971747 0.034717124 -0.033388957
000260 e4 ec 81 bc 88 06 52 bd 87 7e 69 3d 4e ce 10 bd
       -0.015860029 -0.05127576 0.05700543 -0.035352997
000270 ee 76 e5 3c 98 82 c0 3a 15 91 85 3b f8 6b 4a bd
       0.028010812 0.0014687357 0.004076133 -0.049419373
000280 92 81 5c 3d 37 8a 46 3c 19 4a 81 3c ae d6 8f bd
       0.053834505 0.012117914 0.015782403 -0.07023369
000290 f3 08 9a 3c cf 8b 19 bc 3d d9 13 bd 2c 06 50 3d
       0.018803095 -0.009371712 -0.036095846 0.050787136
0002a0 1a e4 f7 3c d3 3d 7b bc 8d e1 c5 3b d3 37 03 bc
       0.030260134 -0.015334564 0.0060388506 -0.008008915
0002b0 f5 30 21 3d 8c 26 fd bc 96 9d 1b bd e0 da 6d bc
       0.03935333 -0.03090217 -0.037992083 -0.014517516
0002c0 13 1f fb bc 39 14 61 3d 5b 3a 88 3d 03 23 34 bd
       -0.030654466 0.054950926 0.066517554 -0.043978702
0002d0 e9 4d d7 3c ac c9 0c 3d 96 53 bc 3b 34 8b fc bb
       0.026282268 0.034372017 0.005747269 -0.007707024
0002e0 ec fd 5e 3d 3c 08 89 3d 46 8d 64 3d 0f 90 09 bb
       0.054441378 0.06691024 0.05579879 -0.0020990407
0002f0 47 03 4d 3c 7f 78 27 bc b8 3c d8 bc ad b4 90 bc
       0.012512988 -0.0102216 -0.02639614 -0.017664278
000300 d9 f1 4d 3d ad 85 72 3d 85 ff ed 3b a2 48 81 3c
       0.050279472 0.059209514 0.0072631263 0.015781704
000310 bd 22 6c 3c b0 c0 dc 3c f6 29 94 3b 32 38 70 3c
       0.014412579 0.02694735 0.0045216037 0.0146618355
000320 b7 d0 16 bd 28 da 1f 3b 5b 02 7d 3d a9 d6 82 3d
       -0.03682014 0.0024391506 0.061769824 0.063885994
000330 5c c9 00 3d 98 65 be bc a2 6c 40 bc ed 9b 81 bd
       0.03144203 -0.023241803 -0.01174465 -0.063285686
000340 3b 87 e1 bc 07 6a 14 3d 64 f7 8c 3d a4 b0 3a 3d
       -0.027530303 0.036233928 0.068831235 0.045578614
000350 15 e2 25 bd 97 45 53 bc f7 3e 68 bc 27 57 65 3d
       -0.04049881 -0.0128950095 -0.014175168 0.055991318
000360 a5 1c 98 3b 1c a8 73 bc 9b 22 03 3d 94 2a 42 bc
       0.0046420866 -0.014871623 0.032015424 -0.011850972
000370 47 72 10 bd ec ef 3c 3d 4b 05 bf bc 44 dd 97 bc
       -0.035265233 0.046127245 -0.023317954 -0.018538125
000380 44 d9 5f bd 15 b7 36 3d 6d ce 37 3d 7a 8d 0b 3d
       -0.05465056 0.044608194 0.044874597 0.03407047
000390 2a 80 d9 bc 05 55 87 bd e4 42 24 bd cc 1d a6 3d
       -0.026550371 -0.06608013 -0.040102854 0.08111152
0003a0 1e a0 1c 3d 89 f5 69 3d fd 10 3c 3d 05 31 09 3d
       0.038238637 0.057118926 0.04591464 0.033494014
0003b0 80 86 b7 3c 6c 2f 16 bd ad 0a 69 bd 12 af 73 bd
       0.022403002 -0.03666632 -0.056894947 -0.059493132
0003c0 87 a7 96 3c 5d 8f 90 bc 53 af 2b 3c 93 7a c1 bc
       0.01839043 -0.017646486 0.010478812 -0.023618018
0003d0 24 04 30 3b 45 2e 93 bc 5e bd ce bc a8 4f bc 3c
       0.0026857937 -0.017966399 -0.025236782 0.022987202
0003e0 c7 b9 83 bc 97 e0 3b 3d 20 b7 a4 ba 61 e5 fd bc
       -0.016079796 0.045868482 -0.0012566783 -0.030993165
0003f0 03 8e be bc cc 62 bf bc e6 c2 5b bc 8d 81 51 bd
       -0.023261076 -0.02336254 -0.013413167 -0.05114894

conv1.bias f4 [16]
000000 98 3f 15 3d 44 01 01 3d 8e 4d 84 bc f2 0c 1d bb
       0.0364376 0.031495348 -0.016150262 -0.0023964015
000010 a5 84 98 3d 8d 63 06 3d 52 e2 91 3d f0 2c 29 bd
       0.07447175 0.032809783 0.07123245 -0.04130262
000020 01 df 9d bd 4a 8a 19 3c 65 a2 0f 3d 73 39 b4 3c
       -0.0770855 0.00937135 0.03506698 0.02200005
000030 ae b0 65 3d 7e 0e 72 bd f2 ec 7a 3c 32 7e 09 3d
       0.056076698 -0.059095852 0.015315281 0.033567615

batchnorm1.weight f4 [16]
000000 e6 6f 80 3f e0 87 7c 3f 40 0b 82 3f c6 ee 78 3f
       1.0034149 0.9864483 1.0159683 0.9723934
000010 38 1b 7f 3f cc 8c 79 3f fd cb 82 3f 11 7c 7f 3f
       0.9965091 0.97480464 1.0218502 0.99798685
000020 09 fe 86 3f 91 27 76 3f 25 b6 83 3f 2b 13 88 3f
       1.0546275 0.96154124 1.0289961 1.063085
000030 2d f4 80 3f 31 51 81 3f 6b 2c 7d 3f 2d c9 6f 3f
       1.0074517 1.0102903 0.988959 0.93666345

batchnorm1.bias f4 [16]
000000 ff b8 9e bc 63 09 75 bd 3f b4 93 3b 48 15 b4 bd
       -0.019375322 -0.059823405 0.004507571 -0.087931216
000010 9d 1f 90 3c 65 a6 b0 bc 7c c7 ba 3b d6 a1 0d 3b
       0.0175932 -0.021563718 0.00570005 0.0021611354
000020 88 f8 46 3c 08 a5 5e bd 3b 26 2f bd 4e c0 3a 3d
       0.012144215 -0.054356605 -0.04276107 0.045593552
000030 fb c2 78 bb a8 0c 75 bc 15 5e a5 3c b8 a6 f3 bc
       -0.0037958014 -0.014956631 0.020186463 -0.029742584

batchnorm1.running_mean f4 [16]
000000 5c fe 1f 42 e0 87 5b 41 7a d4 8d 43 8f 7e 2a 42
       39.998398 13.720673 283.65997 42.623592
000010 2e 19 8b 41 b2 6c e5 41 eb ff 3a 42 ad cb d0 42
       17.387295 28.678074 46.74992 104.397804
000020 23 8b 12 42 b0 17 8e 3f 1a 57 09 42 09 2b 2b 42
       36.635876 1.1100979 34.33506 42.792027
000030 60 8b 9f 42 f6 77 6d 43 ab 27 a7 3f 51 1e b8 40
       79.77222 237.4686 1.3058981 5.7537007

batchnorm1.running_var f4 [16]
000000 49 30 8f 44 e1 c1 4d 44 1a fa ec 46 5e 21 be 44
       1145.5089 823.02936 30333.05 1521.0427
000010 e9 0b 05 44 fd 49 6a 44 75 f7 9c 44 36 a1 a8 45
       532.1861 937.15607 1255.733 5396.1514
000020 8f 1f a5 44 25 67 07 42 7b b2 ca 44 87 d7 49 45
       1320.9862 33.850727 1621.5775 3229.4705
000030 c7 9e 26 45 2a e6 a4 46 26 81 59 42 2f ec 41 43
       2665.9236 21107.082 54.37612 193.92259

conv2.weight f4 [16, 16, 5, 5]
000000 d4 22 19 bd 38 54 19 bd 0a 52 c2 bc 4f 63 04 bc
       -0.03738673 -0.037433833 -0.02372076 -0.008080318
000010 fe e8 8c 3c a1 22 7e 3c a4 55 bb 3c 71 d4 09 3d
       0.017200943 0.015511186 0.022867985 0.033649866
000020 ee 81 5a bc 87 83 53 bb ca 59 cc 3c 14 55 00 bd
       -0.013336642 -0.0032274441 0.024945159 -0.031331137
000030 9d 75 67 3c 5c 05 6a bd 0f 7a ef bc f2 14 9d bc
       0.014127162 -0.057134017 -0.029233007 -0.019175027
000040 f0 21 b0 ba e2 2a 54 3d bb 46 66 3d b8 2c 85 bb
       -0.0013437849 0.05179871 0.056219798 -0.004064169
000050 a9 d0 81 3c d2 24 50 bd aa 7b 01 bd 38 5f 9f 3c
       0.015846567 -0.050816365 -0.031612076 0.019454584
000060 74 fa 10 38 ee 2c 7a 3c 99 92 08 bd 6a 12 e3 3b
       3.4565528e-05 0.015269501 -0.03334293 0.0069296854
000070 83 2a e5 bc 22 a4 99 3c d7 9e 35 3d 0d ef 05 3d
       -0.027974373 0.018755022 0.044340935 0.03269868
000080 54 3b 58 b9 5d f3 90 bc 16 2a c1 bb d2 cb 80 3c
       -0.00020621467 -0.01769417 -0.0058949096 0.01572219
000090 22 72 7c bb 3e 13 2c 3d 6d 1a 1d 3d 22 40 be bc
       -0.0038520177 0.04201054 0.03835528 -0.02322394
0000a0 cf f2 56 3d 57 0d 18 3d dd 8e eb 3b e2 93 07 3d
       0.052477654 0.037122097 0.0071886615 0.033100016
0000b0 0a 8a 30 3c bf e6 27 bd e0 a2 eb 3c c1 92 92 bc
       0.010775099 -0.04099154 0.028764188 -0.017892243
0000c0 0e 60 34 bc ab 8f 0e 3c ce af 40 3d a9 22 c9 3c
       -0.011009229 0.008701245 0.04704266 0.02455266
0000d0 52 cd 20 bc a3 6b a2 bc 29 0a b3 bc 75 57 5d bd
       -0.009814577 -0.019826716 -0.02185543 -0.054038484
0000e0 65 54 09 3c 10 77 0b bd 5b 0c e5 3a 41 c2 0e bd
       0.008381938 -0.034049094 0.0017474996 -0.034853224
0000f0 fa 4d 2f bd c2 5a d0 3c dd 65 00 3c d4 5d ab bb
       -0.042798974 0.025433902 0.007836786 -0.005229691
000100 ef ae a5 bd f3 85 98 bc 76 d2 08 bc a0 57 02 3c
       -0.080900066 -0.01861856 -0.008350959 0.007955462
000110 e8 c5 c4 bc 93 9a 25 bd 41 fa 5a bd f7 75 bc bb
       -0.02402015 -0.040430617 -0.053461317 -0.005751367
000120 44 14 24 bc 5d 5a 73 3c 18 0c 87 3b a2 e4 ae 3c
       -0.010014597 0.014853087 0.0041213147 0.021349255
000130 60 c3 60 3d bc d2 01 3d e0 c7 01 3d 6f bf bc 3c
       0.054873824 0.031695113 0.031684756 0.023040501
000140 2d d5 37 bd 2b a9 e2 3c 43 95 07 3c 5a dd 5a bd
       -0.044881035 0.027668556 0.008275333 -0.053433754
000150 34 d0 06 bc 8f ea 2a bd 24 54 f5 bc 98 5c 2d 3d
       -0.00822835 -0.0417276 -0.029947348 0.042324632
000160 f0 e7 27 3d da 33 93 3c da 20 0f 3c 0f 3c b8 3c
       0.040992677 0.01796906 0.00873586 0.022489576
000170 41 d4 7b 3d 6c 70 00 3d b6 c0 b9 bb 7f fa 30 bd
       0.061481718 0.031357214 -0.005668725 -0.04320764
000180 34 c4 2c 3d 27 2f 8e 3b fa 7f 22 bc 95 00 58 3c
       0.0421793 0.004339117 -0.009918207 0.0131837325
000190 33 9f 8e bd 6e c6 96 bb 5a 60 2b 3c 6f e9 fe 3a
       -0.069639586 -0.0046012914 0.010459984 0.0019448231
0001a0 d0 0f 16 3d 56 1d 0f bd 37 9d 20 bc d0 3c 3f 3d
       0.036636174 -0.034940086 -0.009803108 0.046688855
0001b0 96 05 5c bb ce 68 31 ba 55 b0 22 3c 49 aa 3c 3c
       -0.0033572665 -0.0006767631 0.009929736 0.0115152085
0001c0 a2 8a b3 3a 25 b5 fd bc 9d 44 24 3d 90 ba 00 3c
       0.0013697932 -0.030970166 0.040104497 0.00785698
0001d0 a9 ad 2b 3d 2d 81 8f 3d fd db 52 bc fe 4f 86 3c
       0.041913662 0.0700706 -0.012869832 0.016395565
0001e0 b5 2b 0d bd 25 b0 bf ba 4c 42 17 3b bf a0 47 3c
       -0.03446551 -0.0014624639 0.0023080288 0.012184321
0001f0 16 71 45 bd df 28 ab 3c b0 af 5f 39 12 ac 81 3c
       -0.04820355 0.020893512 0.00021332386 0.01582912
000200 38 56 1c 3d 97 9b 29 3c fe 7f de 3a 8e c6 a4 3c
       0.038168162 0.010352037 0.00169754 0.02011421
000210 0d 2f 43 bc c0 64 e5 ba 09 b0 e4 3c 7c 90 06 bd
       -0.011913073 -0.0017501339 0.027915971 -0.032852635
000220 73 8c aa 3c aa ae af bb 56 66 1d bd 43 13 29 3c
       0.020818925 -0.0053613978 -0.038427673 0.010319534
000230 18 59 74 3c c4 09 15 3d 71 cf a5 3c ec 1a 9e 3d
       0.01491382 0.036386266 0.020240517 0.07719979
000240 f6 af cf 3c d1 cb 20 3d dd 35 f6 3c 3f 4b 82 3d
       0.02535246 0.039256874 0.03005498 0.06362008
000250 dd 8c 31 bc 55 15 53 bb f5 18 95 bc d7 0a 3e 3d
       -0.010836807 -0.003220876 -0.018200377 0.046397056
000260 54 a9 19 3c 97 6f 62 bd e6 13 0a bc 0d 11 23 3c
       0.00937875 -0.0552822 -0.008427596 0.009952796
000270 73 e6 b8 3c b8 07 15 3d 28 aa 89 39 56 8e 8e 3a
       0.022570824 0.036384314 0.00026257453 0.001087616
000280 9f 3d b1 3c e0 39 f9 bc 65 e4 8f 3d 2a 77 55 3c
       0.021635829 -0.030423105 0.07025985 0.013028899
000290 2b 63 b5 3c ea a3 10 bc 24 41 0c bd 41 21 f3 3c
       0.022142014 -0.008828143 -0.03424181 0.029678943
0002a0 ae 43 9c bc 3d 80 e6 bb de e0 9d 3c 55 90 9e 3b
       -0.019075241 -0.00703433 0.019272264 0.004838983
0002b0 cc f1 28 3d d8 c8 9b bc 26 12 97 bc 4c 3d ab 3c
       0.04124622 -0.019016668 -0.018441271 0.020903252
0002c0 b3 a1 f5 3c 40 d0 45 bd fe 32 78 3c 08 86 da bb
       0.02998433 -0.048294306 0.015148876 -0.00666881
0002d0 a1 14 61 3d 32 6f 76 bd 84 6e 90 bc 46 9b 16 bd
       0.054951314 -0.060164638 -0.017630823 -0.036769174
0002e0 30 ae 69 bd 58 67 db bc 24 b4 72 bd 41 85 8a 3c
       -0.057050884 -0.026782677 -0.059253827 0.016909244
0002f0 bc f0 91 bc 8f 85 3e bb 48 0b 38 bd 96 bc 68 3c
       -0.017814986 -0.0029071306 -0.044932634 0.014205119
000300 bb 88 14 bc cc a3 3e 3b 83 b7 8f bc 0f 6a 46 bc
       -0.009065802 0.002908933 -0.01754356 -0.012110247
000310 b9 75 59 bd 83 74 f1 3b ff 68 37 bd c2 a5 2c 3c
       -0.053090785 0.0073686256 -0.044777866 0.010537567
000320 1a b1 9f bd c5 a4 b3 bd 51 22 eb bc 86 19 44 bc
       -0.07797451 -0.08771662 -0.028702887 -0.011968976
000330 f3 45 c6 3c 9a bc 4e bd 26 a1 d8 bc cc 8c 83 3d
       0.024203276 -0.050472833 -0.026444029 0.06423339
000340 dc 68 16 3d 7c d8 53 3d ce 4c 29 bd 23 6b c9 3c
       0.036721095 0.051720127 -0.041333012 0.02458722
000350 99 61 25 bc 44 af 79 3d d9 20 9b 3c 22 7c 2b bc
       -0.01009407 0.060958162 0.018936561 -0.010466607
000360 2f cb 8c 3d 0c 1f 3c 3d db 66 30 bc a2 9c 6e bb
       0.06874692 0.045928046 -0.01076671 -0.0036409278
000370 6d fe e3 3c 31 61 4c bd ac 79 8d bc 9c 83 7f 3c
       0.02783128 -0.049897376 -0.017269932 0.015595343
000380 17 41 ad bc f5 34 13 bc 23 86 8d 3c 08 5a 82 bb
       -0.021149201 -0.008984794 0.017275875 -0.0039780177
000390 a1 d5 35 3c 96 0b ed 3c 87 7d a1 bc a8 b1 2a bd
       0.011098296 0.028936189 -0.019713176 -0.041673332
0003a0 4d 66 2e bd 04 fe ed ba b7 7b 91 ba ca 84 33 bd
       -0.04257803 -0.0018157368 -0.0011099492 -0.04382781
0003b0 ab 45 d9 3c fe f4 d7 bd a9 62 1d 3d da ed 81 3b
       0.026522478 -0.105447754 0.038424168 0.0039651217
0003c0 fa 5a dd bb f8 a3 3a bd ed bc 8d 3b 30 56 1d 3d
       -0.00675523 -0.04556653 0.0043255 0.038412273
0003d0 93 6f 29 bc ba 8b 5b 3b 55 52 12 3d c5 cf ea 3b
       -0.010341543 0.0033500032 0.03572305 0.0071658813
0003e0 0b a4 67 bd c9 2c a7 bb 78 6e ec 3c 75 eb 97 3c
       -0.056552928 -0.0051017744 0.02886127 0.018544892
0003f0 90 0e 10 3c d5 06 10 3c 0f 75 5d 3d a3 ec 85 3d
       0.0087925345 0.008790691 0.054066714 0.065392755

conv2.bias f4 [16]
000000 32 b8 10 3d 8f 39 a9 bd b5 c1 4d bb cb 6b 1b be
       0.035331912 -0.082629316 -0.0031395976 -0.15177839
000010 b0 cf 27 be c3 4d 01 bd 17 71 42 bd ea 20 63 bd
       -0.1638782 -0.0315683 -0.047471132 -0.05545131
000020 38 7b 3f bd 26 da e5 bd c3 15 1a bd 8a bd ca 3c
       -0.04674837 -0.11223249 -0.03761841 0.024748582
000030 aa 5e 01 be 2a 5c 57 bd 55 e7 c0 bc e3 f1 04 bd
       -0.12633768 -0.05257813 -0.023547808 -0.032457244

batchnorm2.weight f4 [16]
000000 a7 32 9a 3f dc c7 9a 3f 93 b3 94 3f ce 58 99 3f
       1.2046708 1.2092242 1.1617302 1.1980226
000010 5c 7c 96 3f d5 0a 96 3f c0 15 9b 3f 5d 1e 9d 3f
       1.1756701 1.1722056 1.2116013 1.2274891
000020 63 8a 9c 3f fe 1e 9c 3f ec 09 95 3f 1c 88 9a 3f
       1.2229732 1.2196958 1.1643653 1.2072787
000030 07 b3 94 3f 40 37 99 3f f0 8c 99 3f 93 0d 9b 3f
       1.1617135 1.1969986 1.1996136 1.2113518

batchnorm2.bias f4 [16]
000000 5f 10 95 3d fe e7 28 bd ef fa 11 bb 7f 63 33 3d
       0.07278513 -0.04123687 -0.0022274812 0.04379606
000010 eb 6b 31 3d 70 45 e3 3a 53 f2 f0 3c 46 3b ba bc
       0.04331581 0.001733942 0.029412424 -0.022733342
000020 81 39 9b 3b 8f ce 0a 3d dd 12 11 3d 29 aa 0d bc
       0.0047370796 0.033888396 0.03541838 -0.008646526
000030 57 d7 85 3c 38 b9 3e 3d 6f 7b 0e 3d 9d eb c1 3b
       0.016338034 0.046563357 0.034785684 0.00591798

batchnorm2.running_mean f4 [16]
000000 52 58 6f 3f 13 38 48 3f a4 00 7b 3f c6 fc 95 3f
       0.9349414 0.7821056 0.9804785 1.1717765
000010 d0 9e 63 3f 62 42 c7 3f 93 71 4a 3f a0 a4 28 3f
       0.88914204 1.5567133 0.7907955 0.658762
000020 dc 38 63 3f 3f ab 3e 3f 3e ee 9b 3f 89 2b 6f 3f
       0.88758636 0.7448005 1.2182081 0.93425804
000030 59 39 82 3f 39 62 57 3f a4 47 79 3f a6 55 8b 3f
       1.0173751 0.8413425 0.9737494 1.0885513

batchnorm2.running_var f4 [16]
000000 25 36 7b 3e 5c 26 2a 3e 18 e9 a2 3e c4 fb d2 3e
       0.24532373 0.16616195 0.3181846 0.41207707
000010 29 d5 ec 3e bf b1 e4 3e 85 8c 61 3e 34 85 0f 3e
       0.46256378 0.4466686 0.2202626 0.14015657
000020 60 4c 6c 3e d8 db 60 3e fd 7c c7 3e ce 6f 88 3e
       0.2307601 0.21958864 0.38962546 0.266478
000030 2f ae ef 3e 9e aa 94 3e b9 9c 8e 3e eb 0f 94 3e
       0.4681258 0.2903642 0.27853945 0.28918394

conv3.weight f4 [18, 16, 2, 10]
000000 13 38 1a 3d 18 34 a2 3c bf b5 6d bd 54 cd 84 3c
       0.037651133 0.01980023 -0.058034655 0.01621119
000010 b5 0f 1d bc 3a e4 94 bc 3a c9 9b 3c d2 21 90 bd
       -0.009586264 -0.018175233 0.01901685 -0.07037701
000020 14 15 5b 3b 16 69 d5 3b 1b 59 11 bd 63 c9 83 3c
       0.0033429312 0.0065127714 -0.03548537 0.01608724
000030 c2 48 7a bd 74 93 c5 bc 1e ae 86 bc ba 91 64 3d
       -0.061104544 -0.024118163 -0.016440447 0.05580304
000040 14 ac 4c bd 8a 45 76 bd be 3e bb 3c 75 d2 a4 3b
       -0.049968794 -0.06012491 0.022857066 0.0050299712
000050 6e e7 39 3c 52 db ec bc b3 15 29 ba f5 49 24 3d
       0.011346681 -0.028913174 -0.0006450072 0.040109593
000060 88 22 88 bc 8c f9 3e 3c 0e 7f b2 3d fe ba 0d 3d
       -0.016618028 0.011656176 0.0871564 0.034602158
000070 23 53 a1 bc 95 33 54 3d 0b de 5e bd dc d3 51 bd
       -0.019692963 0.051807005 -0.054410975 -0.051227435
000080 a6 d3 15 bd 92 97 2a bd ac 3b b7 bd 3d 2a 8d 3c
       -0.036578797 -0.041648455 -0.089469284 0.017232055
000090 f4 1e 2e 3e c4 87 81 3d 0c 2f a1 3d d8 7b 9f 3c
       0.17003995 0.06324723 0.078703016 0.019468233
0000a0 4c d8 73 bc d6 0e 22 bd 6f e4 3c bb 31 b5 1f 3d
       -0.014883112 -0.03956493 -0.002882268 0.038991157
0000b0 13 4e 28 bc 6e 59 b3 3b e8 ba 9d 3d 89 df e0 3d
       -0.010272521 0.0054733073 0.07701665 0.10980136
0000c0 b6 6b 23 bc 1a ec 28 3d 44 40 27 3d c3 1d 70 3d
       -0.009974411 0.04124079 0.040832773 0.058622133
0000d0 55 2b 20 bd d5 e5 51 bd 0f ed 7e bc 49 97 61 3d
       -0.039103825 -0.051244576 -0.015559449 0.055075917
0000e0 96 38 85 3d 24 d2 ec 3d 44 49 51 3d 4c 1d 96 3d
       0.065049335 0.11563519 0.051095262 0.07329807
0000f0 0e 4e 6d bd c4 54 bc bd fe d9 92 bd 5b 27 96 bd
       -0.057935767 -0.09195855 -0.07170485 -0.07331725
000100 b0 b7 0f bd 81 68 a4 bd b1 61 d4 bc 94 b1 99 bd
       -0.035087287 -0.08027745 -0.02592549 -0.075045735
000110 68 18 13 bd 1d 9b 9d bb 7a 28 88 bc 27 77 3d bd
       -0.035911947 -0.0048097507 -0.016620863 -0.04625621
000120 ac cb b8 bd 62 93 b7 bd ee 46 c0 bd ad 0e cc bd
       -0.09023222 -0.08963658 -0.09388529 -0.09963737
000130 09 82 d6 bd 88 9a f8 bd 9a 1b 54 bd fc c3 58 bd
       -0.10474021 -0.121388495 -0.051784135 -0.05292128
000140 e0 72 a7 3d d0 b8 db 3c 09 25 7e 3d 60 48 8c 3c
       0.081762075 0.026821524 0.06204704 0.017124355
000150 92 28 2d 3d 17 24 99 bd a3 19 01 bd 80 9d 79 bd
       0.04227502 -0.07477587 -0.03151859 -0.06094122
000160 31 20 f8 bd 30 ec c9 b9 69 49 f9 3c 9d 68 4d 3c
       -0.12115515 -0.0003851368 0.030430513 0.012537149
000170 40 38 23 3d 65 dd 04 3e 98 c9 2d 3d 9b e3 89 3d
       0.039848566 0.1297508 0.042428583 0.067328654
000180 c5 12 07 bd 49 27 79 bd 5b 28 bb bd b7 bf ac 3c
       -0.032976884 -0.06082848 -0.091385566 0.02108751
000190 93 f9 97 3d 8e 6a bd 3d 74 84 c7 bb 37 05 f3 3c
       0.074206494 0.09248839 -0.0060887877 0.029665573
0001a0 58 2e 13 3d 2e ae 44 3c be 57 77 3d bb f0 f1 3d
       0.03593287 0.012004418 0.06038641 0.11813494
0001b0 61 37 d9 3d 1d 66 9c 3c 64 6f a9 3d 13 6b 0d 3b
       0.10606266 0.01909166 0.08273199 0.0021578714
0001c0 5f a2 84 3d c3 05 ce bc d5 d7 f0 bc 30 5e 71 3d
       0.06476282 -0.025149232 -0.029399792 0.058927715
0001d0 05 22 d3 3c b7 e9 99 3d 28 0b f6 3d 36 38 da 3d
       0.025773058 0.07515281 0.12013847 0.10655253
0001e0 3d 15 93 bc 8b dd d8 bd ad 8f a9 bd 55 a8 a4 bc
       -0.017954463 -0.10589131 -0.08279357 -0.020099798
0001f0 7c a9 45 bd 78 11 e4 3d 46 3c b9 3d d0 b4 90 3c
       -0.048257336 0.111361444 0.09044699 0.017664343
000200 49 a8 63 b9 93 46 37 bd 1c cb 74 bc a5 0d 9f bc
       -0.00021711098 -0.04474504 -0.014941003 -0.019415686
000210 27 a5 30 bd 89 b3 3d 3d aa 2e 3e 3d c0 86 8e 3d
       -0.04312625 0.046313796 0.04643122 0.06959295
000220 12 05 92 3d 11 7d 23 bd a5 b1 95 bd 47 b1 7b 3c
       0.07129873 -0.039914194 -0.07309274 0.01536209
000230 04 c5 a1 bd 5b 69 80 bc b0 9f c4 bc 7e 78 17 3d
       -0.07898906 -0.015675237 -0.024001926 0.036980145
000240 b6 08 11 3a 12 0f 03 bd fb 45 10 bd ba ac 5a 3d
       0.0005532609 -0.031996794 -0.03522299 0.05338738
000250 bd b9 0a bd 11 9d 67 3d 5e 5d ef 3c ab 7a 82 bd
       -0.03386854 0.056546275 0.029219326 -0.06371053
000260 6d d6 8e bd 4e 36 9c bc 70 27 87 bc 76 07 99 bc
       -0.06974492 -0.019068863 -0.016498297 -0.018680315
000270 86 57 65 3d 95 0f 04 bd 5d 91 e2 bc ba f3 9e bc
       0.055991672 -0.032241423 -0.027657205 -0.019403327
000280 68 bc 97 ba 01 1c 86 bc 58 1e e5 3b 9c f3 e8 3c
       -0.0011576535 -0.016370775 0.0069921426 0.028436475
000290 99 10 01 bd f8 6a b1 bd 64 33 25 bd aa 6f 94 bd
       -0.03150997 -0.08662981 -0.040332213 -0.07247861
0002a0 a8 27 15 b9 30 c3 69 bd d2 79 35 bd e7 17 f4 3b
       -0.0001422452 -0.05707091 -0.04430563 0.0074491384
0002b0 ff 5d 56 3c 38 2a 2a 3d be 81 f2 bc ba ce 9e bc
       0.013083934 0.04154417 -0.029602882 -0.019385684
0002c0 72 89 43 3d d3 f7 0a bc 2c 27 2f 3d 86 44 d1 3c
       0.0477385 -0.008481937 0.042761967 0.02554537
0002d0 96 40 80 3d 62 c5 0c 3d 51 15 35 bc 7e dc ed bc
       0.06262319 0.034367926 -0.0110524455 -0.029035803
0002e0 e8 9a 83 bd 7e 03 69 bd 78 4b 26 bb 1e 3e 4c 3b
       -0.064260304 -0.056888096 -0.0025374573 0.0031164954
0002f0 74 0b ff 3d 92 de 0e 3d 24 71 2d bd 9d fa f9 bc
       0.124533564 0.03488023 -0.042344227 -0.03051501
000300 5d a2 a9 3c 41 07 f4 3a cb be 46 3d 4c 87 94 3c
       0.020707304 0.0018617884 0.048521798 0.01813092
000310 f8 0e 97 3c 21 03 89 bd 0f 0c 7f 3c 4a 6f 30 3d
       0.018439755 -0.0669005 0.01556684 0.043074884
000320 c1 0c ba 3b f0 3a e8 3c 26 82 36 3d 9f d1 2e 3d
       0.00567779 0.028348416 0.044557713 0.04268038
000330 7d 06 43 3d 99 4c 5b 3d 97 d0 a4 3c b4 9d 8a bb
       0.04761361 0.053539846 0.020118995 -0.0042302255
000340 24 7e fe 39 6a 5d 1b 3c bc 5e 0d 3c c2 ff 84 3d
       0.00048540637 0.009482721 0.0086285435 0.064940944
000350 1b a3 ef 3c 81 4e 69 3d df a9 b1 bc af 72 33 3d
       0.02925258 0.056959633 -0.021687446 0.043810543
000360 07 de b1 bc 05 0f da bc 38 34 d1 bd e5 1f 06 bd
       -0.021712316 -0.02661849 -0.10215038 -0.03274526
000370 b7 09 1d 3d 6b 4e d8 3d 6f 2a 8f 3b 8a 5c 18 3d
       0.038339343 0.10561832 0.004369072 0.037197627
000380 7c 14 0e bc fd 97 8c bd 24 7d 8d 3b b7 3a d2 bc
       -0.008671876 -0.06864927 0.0043178964 -0.025662763
000390 41 af 69 3d 04 06 86 3d 20 cb 22 3d 3b 86 75 3d
       0.0570519 0.06544116 0.039744496 0.059942465
0003a0 65 b8 98 3d ad f6 07 3d e1 75 c8 bc dd 61 45 bd
       0.074570455 0.033194233 -0.024470272 -0.048189033
0003b0 b8 ed 21 3d 6b b5 5d 3c bb 46 06 3e 14 68 f6 3d
       0.039533347 0.013532023 0.13112919 0.1203157
0003c0 a2 fa d9 3d f4 56 f9 3d 63 15 89 3c 10 9f 9d 3c
       0.106435075 0.12174788 0.01673383 0.019240886
0003d0 27 10 a5 3d c4 87 f1 3c d6 3f 89 3c 69 f8 74 3b
       0.080597214 0.029483683 0.016754072 0.003737951
0003e0 86 f1 7c 3d 27 87 e7 bc 44 77 ad 3d 1c bd 0c 3d
       0.061753772 -0.028262688 0.08470014 0.034360036
0003f0 91 9e b5 3d 97 0b 71 3d a1 3f 9d 3d 6b 16 42 3d
       0.08868135 0.058848944 0.07678152 0.04738466

conv3.bias f4 [18]
000000 47 a4 34 bc 46 01 07 3d 99 4e 32 3d 1c 7e 6d bc
       -0.011025495 0.0329602 0.043531988 -0.014495399
000010 49 f9 03 bd 2e b8 34 bd 33 24 ab bc c2 a0 ac bd
       -0.03222016 -0.04412096 -0.020891285 -0.084290996
000020 c3 34 92 3c 0c 96 46 bd e0 f0 26 3c d8 fe 22 bd
       0.017847424 -0.04848294 0.010189265 -0.03979382
000030 33 2c 92 bc 0b fd 2f 3c 14 a1 35 3d fb 61 97 3c
       -0.017843341 0.0107414825 0.04434307 0.018479338
000040 38 fb ab 3d 1b ba 53 bd
       0.083975255 -0.051691156
