rob501_fall_2019_project_05/best_model_45.pth (torch_old, 54441 bytes, 14 tensors)

conv1.weight f4 [16, 3, 9, 9]
0	0x3d4b6506	0.04965689
1	0x3d67e427	0.056614067
2	0xbbe72752	-0.007054248
3	0x3d89ffbd	0.06738231
4	0xbbd8a3e1	-0.0066113328
5	0x3c87e7ca	0.016590018
6	0xbcec5fee	-0.028854337
7	0x3d01acad	0.031658817
8	0x3d49c4dc	0.049260005
9	0xbd24bbb4	-0.04021807
10	0x3d826640	0.06367159
11	0x3cd454e6	0.025919389
12	0x3d79e500	0.061009407
13	0x3c9a821d	0.018860871
14	0x3d154e1d	0.036451448
15	0xbc1bd707	-0.009511716
16	0x3d28f0c5	0.04124524
17	0xbacafc8b	-0.0015486641
18	0xbcfb5021	-0.030677857
19	0x3ce214c8	0.0275978
20	0xbc511d3d	-0.012763319
21	0x3abbd2ec	0.0014329827
22	0xbcaf2ca0	-0.021383584
23	0x3d4c4be4	0.049877062
24	0xbd7160e4	-0.058930293
25	0xbd3236af	-0.04350918
26	0xbcf1f983	-0.029537922
27	0xbd07c66c	-0.033148214
28	0x3c90f3f0	0.017694443
29	0xbd56c8a1	-0.05243743
30	0x3d834017	0.064087085
31	0xbd47fdd3	-0.04882605
32	0x3d513373	0.051074456
33	0x3b29d287	0.0025912838
34	0xbd149215	-0.036272127
35	0x3cc38e88	0.023871675
36	0x3c5035bc	0.012708124
37	0x3d680fdc	0.05665575
38	0x3c40635b	0.011742438
39	0xbc4dfaa4	-0.012571964
40	0x3c8b0d7d	0.016974205
41	0xbce54bff	-0.02799034
42	0x3c3d5f86	0.011558419
43	0x3d14adba	0.03629849
44	0x3ca0168d	0.019542003
45	0xbcf20d07	-0.029547228
46	0x3d1a4895	0.037666876
47	0x3c5f19d1	0.013616995
48	0x3d0ba79b	0.034095388
49	0xbd271031	-0.040786926
50	0xbd8896b5	-0.0666937
51	0xbd0bbe01	-0.03411675
52	0xbd8ba4c7	-0.06818538
53	0x3d127506	0.035756133
54	0x3c93a08e	0.018020894
55	0x3ce3eea1	0.027823748
56	0x3ccd72d0	0.02507916
57	0x3b13850c	0.0022509722
58	0x3d413ae1	0.047175292
59	0xbd34f60f	-0.044179972
60	0xba12299e	-0.00055756595
61	0xbd602a59	-0.054727886
62	0x3bff1cfe	0.0077854386
63	0xbcc619df	-0.024182258
64	0x3c81b303	0.01583243
65	0xbc5a9d22	-0.013343127
66	0x3d5aed3f	0.05344891
67	0xbd2ad389	-0.041705642
68	0xbd1ca71c	-0.038245305
69	0xbd328816	-0.043586813
70	0x3d32ae1a	0.043623067
71	0x3c364d02	0.0111267585
72	0x3d8127e8	0.0630644
73	0xbd5a9388	-0.053363353
74	0xbd83f164	-0.06442526
75	0xbd57f992	-0.052728243
76	0xbd360cad	-0.044445682
77	0x3cac1c71	0.021009656
78	0x3c654305	0.0139930295
79	0x3d171e72	0.03689427
80	0xbd352d89	-0.04423288
81	0xbd24d7bd	-0.040244807
82	0x3d29c0cf	0.041443642
83	0xbc7b4368	-0.015335895
84	0x3d53c1c1	0.05169845
85	0xba6abdc9	-0.0008954672
86	0x3d454824	0.0481645
87	0xbd379ffd	-0.04483031
88	0xbd0a2e07	-0.0337353
89	0x3caecec6	0.021338832
90	0x3cc9a86d	0.024616444
91	0xbbd62fdb	-0.0065364665
92	0x3d5f6ec7	0.054549005
93	0x3d6f4848	0.058418542
94	0xbd08e03b	-0.033416968
95	0xbcd88dfb	-0.026434889
96	0x3d720802	0.059089668
97	0xbcd520be	-0.02601659
98	0xbcbb8711	-0.022891553
99	0xbd777e6f	-0.06042331
100	0xbcbf0153	-0.023316061
101	0x3d16d34f	0.036822613
102	0x3b8988ca	0.0041972147
103	0xbd18f908	-0.03734687
104	0x3c29839c	0.0103463195
105	0xbd3b8793	-0.04578359
106	0xbd793759	-0.0608438
107	0xbd29c038	-0.04144308
108	0xbd3d5c13	-0.046230387
109	0xbcc86068	-0.024460033
110	0x3da02bac	0.0782083
111	0x3cd05b33	0.025434112
112	0x3ce87165	0.028374383
113	0xbd5c62b2	-0.05380506
114	0xbd3d253d	-0.04617809
115	0xbce26433	-0.02763567
116	0xbaf81474	-0.0018926994
117	0xbd499d9c	-0.049222574
118	0xbc705d9d	-0.014670757
119	0xbccef945	-0.025265345
120	0x3c34394c	0.010999989
121	0xbc948e40	-0.018134236
122	0xbc45ee29	-0.012080708
123	0xbd5679b4	-0.05236216
124	0xbd7530bc	-0.05986093
125	0xbd41f85b	-0.04735599
126	0xbc9dae9a	-0.019248296
127	0xbd3709fa	-0.04468725
128	0x3d826e93	0.063687466
129	0xbbd09a6f	-0.006366066
130	0x3d6543c6	0.055972837
131	0x3ca19cc3	0.01972807
132	0xbd65cabc	-0.056101546
133	0x3d0c995b	0.03432594
134	0xbcea94cf	-0.02863541
135	0xbcace0f3	-0.021103358
136	0xbd45875c	-0.048224792
137	0xbd6d9141	-0.057999853
138	0x3cc54ff8	0.024085984
139	0xbc6295d3	-0.013829666
140	0x3cf5eb6e	0.030019488
141	0xbd62404f	-0.05523711
142	0x3d255e76	0.040373288
143	0xbd542fb5	-0.05180331
144	0xbc14dd4a	-0.009085963
145	0x3c50764c	0.012723517
146	0x3d159001	0.036514286
147	0x3d5946b2	0.053045936
148	0x3d7178b1	0.05895299
149	0xbd3fe26e	-0.0468468
150	0x3c6374a7	0.013882793
151	0xbd1862f5	-0.037203748
152	0xbc9084ce	-0.017641451
153	0xbd369cd4	-0.044583157
154	0x3d727632	0.05919475
155	0xbd387cdf	-0.04504096
156	0x3d120b13	0.035655092
157	0x3cc2376f	0.023708073
158	0x3ca3233f	0.019914268
159	0xbd265e6d	-0.040617395
160	0x3d416b63	0.047221553
161	0x3bff0271	0.0077822735
162	0x3c158fac	0.009128492
163	0xbd693771	-0.05693764
164	0x3d094057	0.033508625
165	0xba98630e	-0.00116262
166	0xbc963da0	-0.018339932
167	0x3d84605a	0.0646369
168	0x3c9a8e3e	0.018866654
169	0xbd19b59d	-0.037526716
170	0xbd02373a	-0.03179095
171	0x3b7966e3	0.003805571
172	0x3d2d0e18	0.04224977
173	0xbba5addf	-0.0050561274
174	0xbcb1aa36	-0.021687608
175	0xbc206c88	-0.009791501
176	0xbd2c63a1	-0.0420872
177	0x3cac5d2b	0.02104052
178	0x3d30d403	0.04317094
179	0xbd87e1a4	-0.066348344
180	0x3c5324c6	0.012887185
181	0x3d2f4bda	0.042796947
182	0x3cb3ef86	0.0219648
183	0xbc4a19b9	-0.012335234
184	0x3d24dc11	0.040248934
185	0x3d1101c9	0.035402093
186	0x3c9bdca5	0.01902611
187	0xbca7a139	-0.02046262
188	0xbcd66abd	-0.026173944
189	0x3c323488	0.010876782
190	0x3a952707	0.0011379429
191	0xbc3a6268	-0.011376001
192	0x3d512f62	0.05107058
193	0x3d80230c	0.06256685
194	0xbb0edd6a	-0.0021799454
195	0xbca7157f	-0.020395992
196	0xbc11ffee	-0.008911116
197	0xbc8cdffc	-0.017196648
198	0x3ca92345	0.0206467
199	0x3cdd61df	0.027024208
200	0xbd4f460b	-0.050603908
201	0xbc82d802	-0.015972141
202	0x3d625076	0.055252515
203	0x3c8bd740	0.017070413
204	0xbc6024ac	-0.013680618
205	0xbd7380fa	-0.059449174
206	0xbd5dd381	-0.054156784
207	0xbd683615	-0.0566922
208	0xbc9037bd	-0.017604703
209	0x3cd9c64e	0.026583817
210	0x3d3bf6ec	0.04588978
211	0x3ced03ef	0.02893254
212	0xbd78fb81	-0.060786728
213	0xbd23a0e5	-0.039948363
214	0xbc93a02c	-0.018020712
215	0x3d434138	0.04766962
216	0x3c30c784	0.010789756
217	0xbc8b5c11	-0.017011674
218	0x3cdaee36	0.026724916
219	0xbcac9f27	-0.021071984
220	0xbd23ef70	-0.040023267
221	0x3d4bbd4b	0.04974107
222	0xbd07cfcf	-0.033157166
223	0xbc96a994	-0.018391408
224	0xbd8bd8c7	-0.06828456
225	0x3d2f47df	0.04279315
226	0x3d3ffa1f	0.046869393
227	0x3cd6d597	0.026224894
228	0xbd339fea	-0.043853678
229	0xbd828bfe	-0.06374358
230	0xbd4583bd	-0.04822134
231	0x3d3fff14	0.04687412
232	0x3cbf5de1	0.023360195
233	0x3d2c0100	0.04199314
234	0x3d0877cf	0.033317383
235	0x3c620dce	0.013797237
236	0xb94a465e	-0.00019290435
237	0xbd410e96	-0.04713305
238	0xbd64ee33	-0.055891227
239	0xbd7027b4	-0.058631614
240	0x3caeeea4	0.021354027
241	0xbd22faff	-0.03979015
242	0xbc9f95ad	-0.01948055
243	0xbd2f3289	-0.042772803
244	0xbca30754	-0.019900955
245	0xbd5ede6c	-0.054411337
246	0xbd5714b0	-0.052509964
247	0x3c561245	0.013065879
248	0xbcf20ee7	-0.029548122
249	0x3d163feb	0.03668205
250	0xbcf13891	-0.029445918
251	0xbd60e077	-0.054901566
252	0xbc980906	-0.01855899
253	0xbd21e2e8	-0.039523035
254	0xbcff027d	-0.031129116
255	0xbd91293c	-0.07087943

conv1.bias f4 [16]
0	0x3d8b5bcb	0.068046175
1	0xbd24b237	-0.04020902
2	0xbc7f0e91	-0.015567438
3	0xbc3b51ab	-0.011433045
4	0x3d187430	0.03722018
5	0x3cc2e54e	0.023790982
6	0x3d82b360	0.06381869
7	0xbcd1cb81	-0.025609734
8	0xbdaa3271	-0.08310402
9	0xbc8eb6a7	-0.01742108
10	0xbd68b150	-0.056809723
11	0xbcafa40f	-0.021440534
12	0x3d5ea8c7	0.054360177
13	0xbd20088e	-0.03907066
14	0x3c80c0b0	0.01571688
15	0xbd6f8f44	-0.058486238

batchnorm1.weight f4 [16]
0	0x3f802c96	1.0013607
1	0x3f7c39e6	0.98525846
2	0x3f818f57	1.0121869
3	0x3f7d2ece	0.98899543
4	0x3f844853	1.0334572
5	0x3f7e4e97	0.9933867
6	0x3f80ba7d	1.0056912
7	0x3f8015f1	1.0006696
8	0x3f83b046	1.0288169
9	0x3f79132c	0.9729488
10	0x3f825e31	1.0184995
11	0x3f7fd458	0.99933386
12	0x3f81e45b	1.0147814
13	0x3f7de03b	0.99170274
14	0x3f7d7e6a	0.9902102
15	0x3f7afa90	0.9803858

batchnorm1.bias f4 [16]
0	0x3cedd5f7	0.02903269
1	0x3c9f011b	0.019409707
2	0x3c0b365d	0.008496848
3	0x3aee3553	0.0018173851
4	0xbc39c157	-0.0113376
5	0x3cbf85fe	0.023379322
6	0xbc7e3d31	-0.015517519
7	0xbd1933af	-0.037402805
8	0xbcf09bc7	-0.029371155
9	0x3cf9bbd0	0.030485064
10	0xbb883a3c	-0.0041573327
11	0xbcb487c8	-0.022037402
12	0x3c52cd9f	0.012866407
13	0x3c96eae2	0.018422548
14	0xbbc6e12d	-0.0060693235
15	0xbbbb65ac	-0.0057189073

batchnorm1.running_mean f4 [16]
0	0x416b29fb	14.697749
1	0x3fdf8ab6	1.7464206
2	0x43644f79	228.31044
3	0x4165f1fa	14.371576
4	0x41a8fb04	21.122566
5	0x3f7e99f0	0.9945364
6	0x4163c5f3	14.235827
7	0x4302df04	130.87115
8	0x4256c0b1	53.688175
9	0x3fcb8081	1.5898591
10	0x42c15345	96.662636
11	0x42fd16ae	126.5443
12	0x4240a415	48.160236
13	0x41116abe	9.08856
14	0x41b19bc5	22.20106
15	0x41c300da	24.375416

batchnorm1.running_var f4 [16]
0	0x4424fbaa	659.93225
1	0x42933abf	73.61474
2	0x469970ac	19640.336
3	0x4423b009	654.75055
4	0x443712f4	732.29614
5	0x41d82609	27.018572
6	0x43ad1cd5	346.22525
7	0x45bb7be2	5999.4854
8	0x44ccbf38	1637.9756
9	0x422446d3	41.069164
10	0x4555b67e	3419.4058
11	0x45c57220	6318.2656
12	0x44a7e9f4	1343.311
13	0x439aa106	309.258
14	0x44447531	785.8311
15	0x442a66e1	681.6075

conv2.weight f4 [16, 16, 5, 5]
0	0xbcb4552e	-0.022013273
1	0xbd186f51	-0.037215535
2	0xbc32dd2e	-0.010916991
3	0xbcc0d31a	-0.023538161
4	0x3c3d44ed	0.011552078
5	0x3d1874b6	0.03722068
6	0x3d19e833	0.037574958
7	0x3c3c3dfe	0.011489389
8	0x3b8da3d4	0.0043225084
9	0x3c991986	0.018688928
10	0x3cc1c6ff	0.023654459
11	0xbd1a0f9d	-0.037612546
12	0x3cc9be17	0.024626775
13	0xbd49641d	-0.04916774
14	0xbd1a6829	-0.03769699
15	0x3cf4615f	0.029831586
16	0x3a7182c2	0.0009212905
17	0x3ce82a3d	0.028340453
18	0x3d84572e	0.06461941
19	0x3d3914c4	0.04518582
20	0x3d3c0ed9	0.045912597
21	0xbc2e3fcd	-0.0106353285
22	0xbb51959c	-0.0031980043
23	0xba96c114	-0.0011501634
24	0x3c8ee768	0.017444327
25	0xbc4346dc	-0.01191875
26	0xbb3c2a5c	-0.0028711772
27	0x3d822a12	0.063556805
28	0xbc502423	-0.012703928
29	0x3ce0407a	0.027374495
30	0x3bb219b9	0.0054351953
31	0x3c9cb0aa	0.019127209
32	0x38198718	3.660386e-05
33	0xbcdc2a56	-0.026875656
34	0x3c748f12	0.014926689
35	0xbd01ffd5	-0.03173812
36	0xbd52e489	-0.05148748
37	0x3d02ae46	0.03190448
38	0x3cdb0a41	0.026738288
39	0xbd026acb	-0.031840127
40	0x3d0fde6d	0.03512423
41	0x3a98f49c	0.0011669579
42	0x3b53b032	0.0032301066
43	0x3d2f711c	0.04283248
44	0xbb993380	-0.0046753287
45	0xbb09f361	-0.0021049606
46	0x3d16cf69	0.036818895
47	0xbccb3bc6	-0.024808776
48	0xbc985c06	-0.018598568
49	0xbcca5b28	-0.02470167
50	0x3d425b0a	0.047450103
51	0x3c5300f2	0.012878643
52	0xbcaac8ad	-0.020847643
53	0xbbed60b7	-0.0072441953
54	0x3c81734d	0.01580205
55	0xbd0cd160	-0.034379363
56	0xbacaa08e	-0.0015459226
57	0xbd443b46	-0.04790809
58	0xbc043cf9	-0.008071178
59	0xbc1ea3c0	-0.009682596
60	0xbc8a2e3e	-0.016867753
61	0x3d391500	0.045186043
62	0x3c582559	0.013192498
63	0x3cbeda7c	0.02329754
64	0xbc4bc1b8	-0.012436323
65	0x3a7fc34e	0.00097565807
66	0x3c2305ec	0.009950142
67	0x3c48a2f2	0.01224588
68	0xbcafb4fb	-0.021448603
69	0x3c151c1b	0.009100939
70	0xbd6eba56	-0.058283173
71	0x3c135d63	0.008994433
72	0x3c906a8a	0.017628927
73	0x39df8348	0.00042631687
74	0x3ca3b9e5	0.019986102
75	0x3d11e47e	0.035618298
76	0x3d3f08f6	0.046639405
77	0x3c1640cf	0.009170725
78	0x3be76154	0.007061163
79	0x3c03677d	0.008020279
80	0xbcbcdf55	-0.023055712
81	0xbaed68b7	-0.0018112872
82	0xbb370c14	-0.0027930783
83	0xbd487c87	-0.048946884
84	0xbc67e7ca	-0.014154384
85	0xbd027b31	-0.031855766
86	0xbd22cd67	-0.03974667
87	0x3cd29411	0.02570537
88	0x3d215a39	0.039392684
89	0xbbf0aaea	-0.0073445933
90	0x3cee4fe4	0.02909083
91	0x3b99d575	0.0046946355
92	0x3cfbb4ed	0.03072592
93	0x3c135f7e	0.008994935
94	0xbc7b4431	-0.015336082
95	0xbc91fecc	-0.017821692
96	0x3d2b99f1	0.041894857
97	0x3cc7fe86	0.024413358
98	0xbc165458	-0.009175383
99	0x3cd5c023	0.026092594
100	0xbd383aa4	-0.0449778
101	0x3b545996	0.003240203
102	0x3cfd7ee8	0.030944303
103	0xbc05f7c3	-0.008176747
104	0x3cc2aadd	0.023763115
105	0xbd5ea57f	-0.054357048
106	0xbc8f58d6	-0.017498415
107	0x3cd3c761	0.025851907
108	0xbd2a68c3	-0.041603815
109	0xbc86df4a	-0.016463894
110	0x3ca196c3	0.01972521
111	0x3c4fe5ff	0.012689113
112	0x3ca9879e	0.02069455
113	0xbd208132	-0.03918571
114	0x3d1e9af1	0.038721982
115	0xbc39ba91	-0.011335985
116	0x3c8741d7	0.016510887
117	0x3d188d47	0.037244108
118	0xbd217b7f	-0.039424416
119	0x3d26486e	0.040596418
120	0xbd6ec6cb	-0.058295052
121	0x3d009139	0.031388495
122	0x3c8ec1bd	0.017426366
123	0x3c2a5f28	0.010398664
124	0xbbe249b4	-0.0069057588
125	0x3bed9f8e	0.0072516864
126	0xbd093343	-0.033496153
127	0x3bc1988d	0.005908078
128	0x3d331a02	0.043725975
129	0xbc9f9d95	-0.01948432
130	0xbc63dca6	-0.013907587
131	0x3c1fdde9	0.009757497
132	0x3c5fd0e3	0.013660642
133	0xbc4912ff	-0.012272595
134	0x3d1df614	0.038564757
135	0xbc87a51e	-0.016558226
136	0xbb30f7f2	-0.0027003256
137	0x3c94010c	0.018066905
138	0xbbf606c6	-0.0075081317
139	0x3d0aca76	0.033884488
140	0x3ca6f710	0.02038148
141	0x3c533390	0.012890711
142	0xbca362a8	-0.019944504
143	0x3d2ae72b	0.041724365
144	0xbd1710ab	-0.03688113
145	0x3c6116a2	0.013738306
146	0x3cc26991	0.023731979
147	0x3d1a3e5a	0.03765712
148	0xbd3b716a	-0.045762457
149	0x3c885631	0.016642662
150	0xbd42723a	-0.047472216
151	0x3c52031e	0.012818126
152	0x3c892f88	0.016746297
153	0xbd2de751	-0.04245693
154	0x3c96703d	0.018364066
155	0xbb73ffb5	-0.003723127
156	0x3c3d8fd4	0.011569936
157	0x3d4189de	0.04725062
158	0x3c42bfa7	0.011886514
159	0x3b087660	0.002082251
160	0x3adbdee8	0.0016774805
161	0xbd5ea441	-0.054355863
162	0x3cae1e3f	0.021254657
163	0xbbde931f	-0.0067924405
164	0x3d064f11	0.032790247
165	0xbbd26605	-0.006420853
166	0xbca0699f	-0.019581614
167	0x3cf5f6e5	0.030024955
168	0xbd00462a	-0.031316914
169	0x3cf8fabb	0.030392995
170	0x3a939a66	0.0011261224
171	0xbce51dee	-0.027968373
172	0x3cc3054c	0.023806237
173	0xbd41f5c3	-0.047353517
174	0xbcab6efd	-0.020926947
175	0x3c906a8f	0.017628936
176	0x3c64697d	0.013941166
177	0xbd75a23e	-0.05996918
178	0x3c0df6fe	0.008664845
179	0x3bc90ff3	0.0061359345
180	0x3d23cff1	0.03999323
181	0xbd835bf7	-0.06414025
182	0xbcc6918f	-0.02423933
183	0xbd18c641	-0.037298445
184	0xbd1095ce	-0.035299115
185	0xbc657a45	-0.014006202
186	0xbd61975b	-0.055075984
187	0x3cf55451	0.029947432
188	0xbca14d03	-0.019690042
189	0x3d0d41d5	0.03448661
190	0xbd1944ab	-0.037419003
191	0xbc41e5b9	-0.011834555
192	0xbd45e726	-0.048316143
193	0x3cd05b87	0.025434269
194	0x3d7c5e89	0.061613593
195	0x3c9bffd7	0.019042892
196	0xbd179802	-0.0370102
197	0x3c016948	0.007898636
198	0xbd82411e	-0.06360076
199	0x3c61c701	0.013780356
200	0x3c419730	0.011815831
201	0xbcc2d007	-0.023780836
202	0xbcbc998b	-0.023022434
203	0xbd6b0fea	-0.057388224
204	0x3c360559	0.011109673
205	0xbc92009a	-0.017822552
206	0xbcad61a3	-0.02116472
207	0x3d7558ce	0.059899144
208	0xbb4afb5c	-0.0030972576
209	0x3cd12380	0.025529623
210	0xbba2ace2	-0.004964457
211	0x3d392abe	0.045206778
212	0x3d114356	0.035464607
213	0x3d59c5a5	0.053167004
214	0x3d0c7576	0.034291707
215	0xbc044c0c	-0.008074772
216	0x3d5d9797	0.054099645
217	0x3c7f7fc8	0.01559443
218	0xbccd90b5	-0.025093416
219	0x3d1d3087	0.038376357
220	0xbccc8df4	-0.024970032
221	0xbd5a2be2	-0.053264506
222	0x39e87446	0.0004433712
223	0xbcb14864	-0.021640964
224	0xbc8232a6	-0.015893292
225	0xbca4748d	-0.020075107
226	0xbc57eeca	-0.01317949
227	0xbc7b7bdf	-0.015349357
228	0xbb186586	-0.0023253872
229	0x3d371e2d	0.044706512
230	0xbcd59f28	-0.026076868
231	0xbd258e2e	-0.040418796
232	0xbd06401e	-0.03277599
233	0x388960f6	6.5507294e-05
234	0xbbe5d46f	-0.0070138494
235	0xbd2c19ab	-0.042016666
236	0x3c8e9b66	0.017408084
237	0xbd3b14ee	-0.045674257
238	0x3d10148a	0.035175838
239	0x3bb2f40c	0.0054612216
240	0xbbb86073	-0.005626732
241	0xbc9746eb	-0.018466434
242	0x3ce47c09	0.027891176
243	0x3d2122b4	0.039339736
244	0xbc74c2f0	-0.014939055
245	0xbc8f34db	-0.017481258
246	0x3d2831cf	0.041063126
247	0xbbda367b	-0.0066593266
248	0xbd02c9a5	-0.031930584
249	0xbc5b74d0	-0.0133945495
250	0x3bc01560	0.005861923
251	0xbc5641b3	-0.013077187
252	0xbd1e4700	-0.03864193
253	0xbd2907d2	-0.041267224
254	0x3c63fe63	0.013915631
255	0x3cda9d5c	0.026686363

conv2.bias f4 [16]
0	0x3d417f09	0.04724029
1	0xbbe3ede8	-0.006955851
2	0x3d05cce9	0.03266612
3	0xbd50e508	-0.05099967
4	0xbc9c18aa	-0.01905473
5	0xbbb5d288	-0.005548779
6	0xbd4868b2	-0.04892797
7	0xbc9c5e87	-0.019088043
8	0xbc187760	-0.009305805
9	0xbc45ab67	-0.012064791
10	0x3c395577	0.01131188
11	0x3be8e916	0.007107864
12	0xbc22ac8d	-0.009928835
13	0xba1955f6	-0.0005849296
14	0x3d506e5d	0.0508865
15	0xbd079c1b	-0.03310786

batchnorm2.weight f4 [16]
0	0x3f8133e9	1.0093967
1	0x3f82eb1b	1.0227998
2	0x3f858196	1.0430171
3	0x3f85481c	1.0412631
4	0x3f85c0d4	1.0449471
5	0x3f8280b7	1.0195531
6	0x3f833817	1.0251492
7	0x3f85e72b	1.0461172
8	0x3f818b87	1.0120705
9	0x3f84f74c	1.0387969
10	0x3f84da26	1.0379074
11	0x3f85c0d4	1.0449471
12	0x3f83ca6a	1.0296147
13	0x3f80f221	1.0073892
14	0x3f82e78c	1.0226912
15	0x3f853677	1.0407246

batchnorm2.bias f4 [16]
0	0xbc7639ba	-0.0150284115
1	0x3ba94ff7	0.0051670033
2	0x3c732866	0.014841175
3	0x3cbaff81	0.022826912
4	0xbca02e5d	-0.019553358
5	0xbc513cb8	-0.012770824
6	0x3a5c723e	0.00084093574
7	0x3d0a49a7	0.033761647
8	0xbbaee140	-0.0053369105
9	0x3c80d0fd	0.015724653
10	0x3d01aece	0.031660847
11	0xbc58b8bf	-0.013227641
12	0x3cbc926e	0.023019042
13	0x3c52f814	0.012876529
14	0x3b2b76fd	0.0026163452
15	0x3c5a7b3c	0.013335045

batchnorm2.running_mean f4 [16]
0	0x3f6ff19c	0.9372804
1	0x3f6b1002	0.918213
2	0x3f9ef12c	1.241735
3	0x3fa2501a	1.2680695
4	0x3fa2140c	1.2662368
5	0x3f859693	1.0436577
6	0x3f38394e	0.7196244
7	0x3f66ee90	0.9020777
8	0x3f8abc0a	1.0838635
9	0x3f6f675c	0.9351709
10	0x3faa69c5	1.3313528
11	0x3fc2e564	1.5226254
12	0x3fa0e625	1.2570235
13	0x3f3f8671	0.74814516
14	0x3f7e03e4	0.99224687
15	0x3f598d8f	0.84981626

batchnorm2.running_var f4 [16]
0	0x3e65d757	0.22445427
1	0x3ea95944	0.33075917
2	0x3ec4abe6	0.38412398
3	0x3f855132	1.0415404
4	0x3f57eaf2	0.84342873
5	0x3eb3c819	0.351136
6	0x3e679189	0.22614111
7	0x3ece5966	0.4030258
8	0x3f1b8b24	0.60759187
9	0x3eca4e67	0.3951294
10	0x3f257741	0.6463509
11	0x3f0ec939	0.5577579
12	0x3eb53251	0.3538995
13	0x3e1909b5	0.14945109
14	0x3e66002b	0.22461002
15	0x3e76c842	0.2409983

conv3.weight f4 [8, 16, 2, 10]
0	0x3d6fb523	0.058522355
1	0x3d315065	0.04328956
2	0xbb3c35af	-0.0028718521
3	0x3d3f1dea	0.046659388
4	0xbb55f52d	-0.0032647357
5	0xbd52af8c	-0.051436946
6	0x3cacc6d3	0.0210909
7	0xbc53a26d	-0.012917143
8	0x3c7ea07d	0.015541193
9	0xbce49cf7	-0.027906878
10	0xbcf68b4e	-0.030095723
11	0x3d772d02	0.060345657
12	0x3c460d21	0.012088091
13	0x3d09b71f	0.033621904
14	0x3a069d94	0.00051351753
15	0x3cec3182	0.0288322
16	0xbd884d50	-0.06655371
17	0xbcdfeb0d	-0.02733376
18	0x3c3c976c	0.011510711
19	0xbd1c248a	-0.038120784
20	0x3cd17e5e	0.025572952
21	0xbc4256da	-0.011861527
22	0xbbdf87b3	-0.0068215965
23	0x3d0ecbab	0.0348622
24	0xbc5afbe3	-0.013365719
25	0xbcd5bef5	-0.026092032
26	0x3c2b16f7	0.010442487
27	0xbd5922a4	-0.05301155
28	0xbd82070a	-0.06348999
29	0x3cf5e7ed	0.030017817
30	0xbd84e859	-0.06489629
31	0xbd5c6c70	-0.05381435
32	0xbc6d24c0	-0.014474094
33	0xbc408d7f	-0.011752485
34	0xbd369118	-0.044571966
35	0xbcd90aa2	-0.026494328
36	0x3c2bae7e	0.010478614
37	0xbd7011f3	-0.058610868
38	0x3be3b828	0.0069494434
39	0xbcedb8d9	-0.029018806
40	0xbc95ac34	-0.01827059
41	0xbd4199dd	-0.047265876
42	0xba998621	-0.0011712947
43	0x3d4ccb4a	0.04999856
44	0xbcf53c56	-0.029935997
45	0xbd5fb8fd	-0.054619778
46	0xbc918f5d	-0.017768556
47	0x3cd6abd9	0.02620499
48	0xbc54e47a	-0.012993926
49	0x3d6fd508	0.05855277
50	0x3d7a22ef	0.06106847
51	0x3d80edfa	0.062953904
52	0xbc8dc3b8	-0.01730524
53	0xbcc7b3c0	-0.024377704
54	0xbd23c740	-0.03998494
55	0xbc3e440a	-0.011612901
56	0xbd59ac9a	-0.05314312
57	0x3c43ee6f	0.0119587025
58	0x3c1851c7	0.009296841
59	0x3d420519	0.047368143
60	0xbd587152	-0.052842446
61	0xbd076882	-0.03305865
62	0x3c7592df	0.01498863
63	0x3ce816b4	0.028331138
64	0x3d3a8c5b	0.04554401
65	0x39de2836	0.000423731
66	0x3d6d7954	0.057977036
67	0x3c0e8183	0.00869787
68	0x3c2fc87d	0.0107289525
69	0xb83361d0	-4.276802e-05
70	0xbcefd509	-0.029276388
71	0xbc775831	-0.01509671
72	0xbd0c6cfa	-0.034283616
73	0xbc0ead1e	-0.008708267
74	0xbd18f517	-0.03734311
75	0xbd2a4652	-0.04157097
76	0xbd09fd40	-0.033688784
77	0xbd017014	-0.031601027
78	0x3bead08f	0.0071659754
79	0xbccb2c3d	-0.024801368
80	0x3cb6449a	0.022249509
81	0xbcecf7e8	-0.028926805
82	0xb94a9edc	-0.00019323401
83	0xbd7a9426	-0.06117644
84	0xbb359799	-0.0027708767
85	0xbd34e869	-0.044166956
86	0x3d596fc6	0.05308511
87	0x3d5c702d	0.053817917
88	0xbcf2df41	-0.029647471
89	0x3d3f6651	0.046728436
90	0xbc7fc6ca	-0.01561136
91	0xbd6b0850	-0.057380974
92	0xbd2c8f58	-0.04212889
93	0x3d12a2e5	0.03579988
94	0xbd05a9e4	-0.032632723
95	0x3d492e3c	0.04911636
96	0x3d039c60	0.032131553
97	0x3d55d94a	0.052209176
98	0xbbf0621f	-0.0073359157
99	0x3d0e7519	0.03477964
100	0x3c95bbac	0.018277965
101	0x3d4942f4	0.049136117
102	0xbd79d36f	-0.060992654
103	0xbd18e8c2	-0.03733135
104	0xbcb8e8a9	-0.022571879
105	0xbcf8a9bb	-0.030354371
106	0x3cdbb757	0.026820822
107	0x3d0b1823	0.033958565
108	0x3c9c6da5	0.019095251
109	0xbd4f91de	-0.05067622
110	0x3d3130d8	0.04325947
111	0xbcae5131	-0.02127895
112	0x3d3cd725	0.046103615
113	0xbd7dc1b7	-0.06195232
114	0xbdaf625a	-0.08563681
115	0xbc98019a	-0.018555451
116	0xbd1be54b	-0.038060468
117	0xbc8b5e58	-0.01701276
118	0x3ce7bea4	0.028289147
119	0x3d015c5c	0.03158222
120	0x3d082d13	0.03324611
121	0xbd31504f	-0.04328948
122	0x3a68609a	0.00088644924
123	0x3c165441	0.009175361
124	0xbd20ed2f	-0.039288696
125	0x3d930e37	0.07180446
126	0x3d5a955e	0.053365104
127	0xbc4e71d5	-0.012600382
128	0xbb663683	-0.0035127706
129	0xbd077e15	-0.033079226
130	0x3c8dc605	0.017306337
131	0x3a9d0ee4	0.0011982587
132	0xbcff9d5e	-0.031202968
133	0x3ccfe112	0.025375877
134	0xbc0981fc	-0.008392807
135	0x3b20f90e	0.002456251
136	0x3c6f976c	0.014623504
137	0xbd69fdfd	-0.057126988
138	0xbda63e2d	-0.08117328
139	0x3a1a8942	0.0005895087
140	0xbd84dfdf	-0.064880125
141	0x3b3f2175	0.002916423
142	0xbc89272a	-0.016742308
143	0x3d0dc149	0.03460816
144	0xbc2130dc	-0.009838309
145	0xbc6e327b	-0.014538403
146	0xbd3da144	-0.046296373
147	0x3cff82ac	0.031190239
148	0xbd321f53	-0.043486904
149	0x3cc795a6	0.02436335
150	0x3c6b0ad8	0.014345847
151	0xbd99f64d	-0.07517681
152	0xbd892109	-0.06695754
153	0xbc198729	-0.009370604
154	0xbcc596ad	-0.0241197
155	0xbcb020c5	-0.0215
156	0x3d4e9d0f	0.05044275
157	0xbd4a8e04	-0.049451843
158	0xbd2437a3	-0.04009212
159	0xbd748c5c	-0.05970417
160	0x3d1db04c	0.038498208
161	0x3c7f4f9c	0.015582945
162	0x3cc4004c	0.023925923
163	0x3c94446d	0.018099034
164	0xbc22d90a	-0.009939441
165	0xbd0cbc97	-0.03435954
166	0x3cc5b2c9	0.024133103
167	0xbc9e41f8	-0.019318566
168	0xbbb0e627	-0.00539853
169	0xbd746d03	-0.059674274
170	0xbcfbcd5b	-0.03073757
171	0xbb9d9a8c	-0.004809683
172	0xbc26a3aa	-0.0101708565
173	0x3ceca7e4	0.02888865
174	0xbc2b96a0	-0.0104729235
175	0x3bffa362	0.007801459
176	0x3d0448c5	0.03229596
177	0xbd03ce93	-0.032179426
178	0xba15a2c7	-0.00057081546
179	0xbc33caa1	-0.010973603
180	0x3d9755c7	0.073894076
181	0x3d3996c0	0.045309782
182	0xbc249742	-0.010045828
183	0x3ca34d75	0.019934395
184	0xbc636bec	-0.013880711
185	0xbc7fde06	-0.015616899
186	0xbd5ab3bc	-0.053394064
187	0xbd9c64ba	-0.076363996
188	0x3c8f2527	0.01747377
189	0xbd72f52e	-0.059315853
190	0xbc64ffaa	-0.013976971
191	0x3bb27d3d	0.0054470585
192	0x3c8fb4b4	0.01754222
193	0xba28750c	-0.0006426133
194	0x3cb06894	0.021534242
195	0x3cf88677	0.030337555
196	0x3b8a7d99	0.004226398
197	0xbd8e2464	-0.06940535
198	0x3bb3b9c3	0.005484791
199	0x3c85d5dc	0.016337328
200	0xbbee7e8e	-0.00727827
201	0x3d0f4deb	0.034986418
202	0x3d2ae3a1	0.04172099
203	0x3cc3e5e6	0.023913335
204	0x3d17caf5	0.03705879
205	0x3d8f6924	0.07002476
206	0x3d98ee0e	0.0746728
207	0x3ce48107	0.027893556
208	0x3d3f4ef7	0.046706166
209	0x3d186530	0.037205875
210	0xbc4f52b1	-0.0126539925
211	0x3d8ef613	0.06980529
212	0x3ccb0d17	0.024786515
213	0x3d03f81f	0.03221905
214	0xbd009a52	-0.03139717
215	0x3d91f80a	0.07127388
216	0x3d173ae4	0.036921397
217	0x3cf95d65	0.030440042
218	0xbd0bc1ab	-0.034120243
219	0x3bc6143d	0.006044893
220	0x3c4cb1e0	0.012493581
221	0x3db5fe52	0.088863984
222	0xbc87ceb6	-0.01657806
223	0x3c72ef13	0.014827508
224	0x3b25fd08	0.002532782
225	0xbc87a849	-0.016559737
226	0x3d31abea	0.04337684
227	0xbb47b7c7	-0.003047453
228	0x3d8262bf	0.063664906
229	0x3d1f6b05	0.03892042
230	0xbb82a696	-0.0039871437
231	0x3cd2a105	0.025711546
232	0x3d18ffbe	0.03735327
233	0x3aaa5c46	0.001299747
234	0xbc107f86	-0.008819466
235	0xbb88f4fa	-0.004179594
236	0x3d171733	0.03688736
237	0xbc4e4b2c	-0.012591165
238	0x3d8fd093	0.07022204
239	0x3d869561	0.065714605
240	0x3d65b412	0.05607993
241	0x3d7972a3	0.06090034
242	0xbc238660	-0.009980768
243	0x3b9579d2	0.0045616413
244	0x3d75f530	0.060048282
245	0x3b351f88	0.0027637202
246	0xbd1ba1da	-0.03799615
247	0xbc053a0b	-0.008131514
248	0x3d815746	0.06315474
249	0x3ac887b9	0.0015299238
250	0x3cd928ff	0.026508806
251	0xbcdb38a4	-0.026760407
252	0x3d79e920	0.06101334
253	0x3d30471d	0.04303657
254	0x3d57d338	0.05269167
255	0x3c95883d	0.01825344

conv3.bias f4 [8]
0	0x3ccf6e28	0.025321081
1	0x3d18883b	0.037239294
2	0xbd1fe661	-0.039038066
3	0x3cbb4b80	0.02286315
4	0xbdb1f7a8	-0.08689815
5	0xbc07371c	-0.008252885
6	0xbd21cb2e	-0.039500408
7	0x3d3990ac	0.045303985
